Using cuda device
==========================================================================================
Layer (type:depth-idx)                   Output Shape              Param #
==========================================================================================
CNN                                      [96, 100]                 --
├─Sequential: 1-1                        [96, 1, 380, 540]         --
├─Sequential: 1-2                        [96, 10240]               --
│    └─Sequential: 2-1                   [96, 8, 190, 270]         --
│    │    └─Conv2d: 3-1                  [96, 8, 380, 540]         80
│    │    └─LeakyReLU: 3-2               [96, 8, 380, 540]         --
│    │    └─BatchNorm2d: 3-3             [96, 8, 380, 540]         16
│    │    └─Conv2d: 3-4                  [96, 8, 380, 540]         584
│    │    └─LeakyReLU: 3-5               [96, 8, 380, 540]         --
│    │    └─BatchNorm2d: 3-6             [96, 8, 380, 540]         16
│    │    └─MaxPool2d: 3-7               [96, 8, 190, 270]         --
│    └─Sequential: 2-2                   [96, 16, 95, 135]         --
│    │    └─Conv2d: 3-8                  [96, 16, 190, 270]        1,168
│    │    └─LeakyReLU: 3-9               [96, 16, 190, 270]        --
│    │    └─BatchNorm2d: 3-10            [96, 16, 190, 270]        32
│    │    └─Conv2d: 3-11                 [96, 16, 190, 270]        2,320
│    │    └─LeakyReLU: 3-12              [96, 16, 190, 270]        --
│    │    └─BatchNorm2d: 3-13            [96, 16, 190, 270]        32
│    │    └─MaxPool2d: 3-14              [96, 16, 95, 135]         --
│    └─Sequential: 2-3                   [96, 32, 47, 67]          --
│    │    └─Conv2d: 3-15                 [96, 32, 95, 135]         4,640
│    │    └─LeakyReLU: 3-16              [96, 32, 95, 135]         --
│    │    └─BatchNorm2d: 3-17            [96, 32, 95, 135]         64
│    │    └─Conv2d: 3-18                 [96, 32, 95, 135]         9,248
│    │    └─LeakyReLU: 3-19              [96, 32, 95, 135]         --
│    │    └─BatchNorm2d: 3-20            [96, 32, 95, 135]         64
│    │    └─MaxPool2d: 3-21              [96, 32, 47, 67]          --
│    └─Sequential: 2-4                   [96, 64, 23, 33]          --
│    │    └─Conv2d: 3-22                 [96, 64, 47, 67]          18,496
│    │    └─LeakyReLU: 3-23              [96, 64, 47, 67]          --
│    │    └─BatchNorm2d: 3-24            [96, 64, 47, 67]          128
│    │    └─Conv2d: 3-25                 [96, 64, 47, 67]          36,928
│    │    └─LeakyReLU: 3-26              [96, 64, 47, 67]          --
│    │    └─BatchNorm2d: 3-27            [96, 64, 47, 67]          128
│    │    └─MaxPool2d: 3-28              [96, 64, 23, 33]          --
│    └─Sequential: 2-5                   [96, 128, 11, 16]         --
│    │    └─Conv2d: 3-29                 [96, 128, 23, 33]         73,856
│    │    └─LeakyReLU: 3-30              [96, 128, 23, 33]         --
│    │    └─BatchNorm2d: 3-31            [96, 128, 23, 33]         256
│    │    └─Conv2d: 3-32                 [96, 128, 23, 33]         147,584
│    │    └─LeakyReLU: 3-33              [96, 128, 23, 33]         --
│    │    └─BatchNorm2d: 3-34            [96, 128, 23, 33]         256
│    │    └─MaxPool2d: 3-35              [96, 128, 11, 16]         --
│    └─Sequential: 2-6                   [96, 256, 5, 8]           --
│    │    └─Conv2d: 3-36                 [96, 256, 11, 16]         295,168
│    │    └─LeakyReLU: 3-37              [96, 256, 11, 16]         --
│    │    └─BatchNorm2d: 3-38            [96, 256, 11, 16]         512
│    │    └─Conv2d: 3-39                 [96, 256, 11, 16]         590,080
│    │    └─LeakyReLU: 3-40              [96, 256, 11, 16]         --
│    │    └─BatchNorm2d: 3-41            [96, 256, 11, 16]         512
│    │    └─MaxPool2d: 3-42              [96, 256, 5, 8]           --
│    └─Flatten: 2-7                      [96, 10240]               --
├─Sequential: 1-3                        [96, 100]                 --
│    └─Sequential: 2-8                   [96, 1740]                --
│    │    └─Linear: 3-43                 [96, 1740]                17,819,340
│    │    └─LeakyReLU: 3-44              [96, 1740]                --
│    │    └─Dropout: 3-45                [96, 1740]                --
│    │    └─BatchNorm1d: 3-46            [96, 1740]                3,480
│    └─Sequential: 2-9                   [96, 1305]                --
│    │    └─Linear: 3-47                 [96, 1305]                2,272,005
│    │    └─LeakyReLU: 3-48              [96, 1305]                --
│    │    └─Dropout: 3-49                [96, 1305]                --
│    │    └─BatchNorm1d: 3-50            [96, 1305]                2,610
│    └─Sequential: 2-10                  [96, 870]                 --
│    │    └─Linear: 3-51                 [96, 870]                 1,136,220
│    │    └─LeakyReLU: 3-52              [96, 870]                 --
│    │    └─Dropout: 3-53                [96, 870]                 --
│    │    └─BatchNorm1d: 3-54            [96, 870]                 1,740
│    └─Sequential: 2-11                  [96, 435]                 --
│    │    └─Linear: 3-55                 [96, 435]                 378,885
│    │    └─LeakyReLU: 3-56              [96, 435]                 --
│    │    └─Dropout: 3-57                [96, 435]                 --
│    │    └─BatchNorm1d: 3-58            [96, 435]                 870
│    └─Linear: 2-12                      [96, 100]                 43,600
├─Sigmoid: 1-4                           [96, 100]                 --
==========================================================================================
Total params: 22,840,918
Trainable params: 22,840,918
Non-trainable params: 0
Total mult-adds (G): 97.28
==========================================================================================
Input size (MB): 78.80
Forward/backward pass size (MB): 9887.98
Params size (MB): 91.36
Estimated Total Size (MB): 10058.14
…
