Using cuda device
==========================================================================================
Layer (type:depth-idx)                   Output Shape              Param #
==========================================================================================
CNN                                      [32, 100]                 --
├─Sequential: 1-1                        [32, 1, 380, 540]         --
├─Sequential: 1-2                        [32, 10240]               --
│    └─Sequential: 2-1                   [32, 8, 190, 270]         --
│    │    └─Conv2d: 3-1                  [32, 8, 380, 540]         80
│    │    └─LeakyReLU: 3-2               [32, 8, 380, 540]         --
│    │    └─BatchNorm2d: 3-3             [32, 8, 380, 540]         16
│    │    └─Conv2d: 3-4                  [32, 8, 380, 540]         584
│    │    └─LeakyReLU: 3-5               [32, 8, 380, 540]         --
│    │    └─BatchNorm2d: 3-6             [32, 8, 380, 540]         16
│    │    └─MaxPool2d: 3-7               [32, 8, 190, 270]         --
│    └─Sequential: 2-2                   [32, 16, 95, 135]         --
│    │    └─Conv2d: 3-8                  [32, 16, 190, 270]        1,168
│    │    └─LeakyReLU: 3-9               [32, 16, 190, 270]        --
│    │    └─BatchNorm2d: 3-10            [32, 16, 190, 270]        32
│    │    └─Conv2d: 3-11                 [32, 16, 190, 270]        2,320
│    │    └─LeakyReLU: 3-12              [32, 16, 190, 270]        --
│    │    └─BatchNorm2d: 3-13            [32, 16, 190, 270]        32
│    │    └─MaxPool2d: 3-14              [32, 16, 95, 135]         --
│    └─Sequential: 2-3                   [32, 32, 47, 67]          --
│    │    └─Conv2d: 3-15                 [32, 32, 95, 135]         4,640
│    │    └─LeakyReLU: 3-16              [32, 32, 95, 135]         --
│    │    └─BatchNorm2d: 3-17            [32, 32, 95, 135]         64
│    │    └─Conv2d: 3-18                 [32, 32, 95, 135]         9,248
│    │    └─LeakyReLU: 3-19              [32, 32, 95, 135]         --
│    │    └─BatchNorm2d: 3-20            [32, 32, 95, 135]         64
│    │    └─MaxPool2d: 3-21              [32, 32, 47, 67]          --
│    └─Sequential: 2-4                   [32, 64, 23, 33]          --
│    │    └─Conv2d: 3-22                 [32, 64, 47, 67]          18,496
│    │    └─LeakyReLU: 3-23              [32, 64, 47, 67]          --
│    │    └─BatchNorm2d: 3-24            [32, 64, 47, 67]          128
│    │    └─Conv2d: 3-25                 [32, 64, 47, 67]          36,928
│    │    └─LeakyReLU: 3-26              [32, 64, 47, 67]          --
│    │    └─BatchNorm2d: 3-27            [32, 64, 47, 67]          128
│    │    └─MaxPool2d: 3-28              [32, 64, 23, 33]          --
│    └─Sequential: 2-5                   [32, 128, 11, 16]         --
│    │    └─Conv2d: 3-29                 [32, 128, 23, 33]         73,856
│    │    └─LeakyReLU: 3-30              [32, 128, 23, 33]         --
│    │    └─BatchNorm2d: 3-31            [32, 128, 23, 33]         256
│    │    └─Conv2d: 3-32                 [32, 128, 23, 33]         147,584
│    │    └─LeakyReLU: 3-33              [32, 128, 23, 33]         --
│    │    └─BatchNorm2d: 3-34            [32, 128, 23, 33]         256
│    │    └─MaxPool2d: 3-35              [32, 128, 11, 16]         --
│    └─Sequential: 2-6                   [32, 256, 5, 8]           --
│    │    └─Conv2d: 3-36                 [32, 256, 11, 16]         295,168
│    │    └─LeakyReLU: 3-37              [32, 256, 11, 16]         --
│    │    └─BatchNorm2d: 3-38            [32, 256, 11, 16]         512
│    │    └─Conv2d: 3-39                 [32, 256, 11, 16]         590,080
│    │    └─LeakyReLU: 3-40              [32, 256, 11, 16]         --
│    │    └─BatchNorm2d: 3-41            [32, 256, 11, 16]         512
│    │    └─MaxPool2d: 3-42              [32, 256, 5, 8]           --
│    └─Flatten: 2-7                      [32, 10240]               --
├─Sequential: 1-3                        [32, 100]                 --
│    └─Sequential: 2-8                   [32, 1740]                --
│    │    └─Linear: 3-43                 [32, 1740]                17,819,340
│    │    └─LeakyReLU: 3-44              [32, 1740]                --
│    │    └─Dropout: 3-45                [32, 1740]                --
│    │    └─BatchNorm1d: 3-46            [32, 1740]                3,480
│    └─Sequential: 2-9                   [32, 1305]                --
│    │    └─Linear: 3-47                 [32, 1305]                2,272,005
│    │    └─LeakyReLU: 3-48              [32, 1305]                --
│    │    └─Dropout: 3-49                [32, 1305]                --
│    │    └─BatchNorm1d: 3-50            [32, 1305]                2,610
│    └─Sequential: 2-10                  [32, 870]                 --
│    │    └─Linear: 3-51                 [32, 870]                 1,136,220
│    │    └─LeakyReLU: 3-52              [32, 870]                 --
│    │    └─Dropout: 3-53                [32, 870]                 --
│    │    └─BatchNorm1d: 3-54            [32, 870]                 1,740
│    └─Sequential: 2-11                  [32, 435]                 --
│    │    └─Linear: 3-55                 [32, 435]                 378,885
│    │    └─LeakyReLU: 3-56              [32, 435]                 --
│    │    └─Dropout: 3-57                [32, 435]                 --
│    │    └─BatchNorm1d: 3-58            [32, 435]                 870
│    └─Linear: 2-12                      [32, 100]                 43,600
├─Sigmoid: 1-4                           [32, 100]                 --
==========================================================================================
Total params: 22,840,918
Trainable params: 22,840,918
Non-trainable params: 0
Total mult-adds (G): 32.43
==========================================================================================
Input size (MB): 26.27
Forward/backward pass size (MB): 3295.99
Params size (MB): 91.36
Estimated Total Size (MB): 3413.62
…
