Using cuda device
==========================================================================================
Layer (type:depth-idx)                   Output Shape              Param #
==========================================================================================
CNN                                      [12, 100]                 --
├─Sequential: 1-1                        [12, 1, 380, 540, 12]     --
│    └─glp_rotation_stack: 2-1           [12, 1, 380, 540, 12]     --
├─Sequential: 1-2                        [12, 10080]               --
│    └─Sequential: 2-2                   [12, 8, 190, 270, 12]     --
│    │    └─Conv3d: 3-1                  [12, 8, 380, 540, 12]     80
│    │    └─LeakyReLU: 3-2               [12, 8, 380, 540, 12]     --
│    │    └─BatchNorm3d: 3-3             [12, 8, 380, 540, 12]     16
│    │    └─Conv3d: 3-4                  [12, 8, 380, 540, 12]     584
│    │    └─LeakyReLU: 3-5               [12, 8, 380, 540, 12]     --
│    │    └─BatchNorm3d: 3-6             [12, 8, 380, 540, 12]     16
│    │    └─MaxPool3d: 3-7               [12, 8, 190, 270, 12]     --
│    └─Sequential: 2-3                   [12, 16, 95, 135, 12]     --
│    │    └─Conv3d: 3-8                  [12, 16, 190, 270, 12]    1,168
│    │    └─LeakyReLU: 3-9               [12, 16, 190, 270, 12]    --
│    │    └─BatchNorm3d: 3-10            [12, 16, 190, 270, 12]    32
│    │    └─Conv3d: 3-11                 [12, 16, 190, 270, 12]    2,320
│    │    └─LeakyReLU: 3-12              [12, 16, 190, 270, 12]    --
│    │    └─BatchNorm3d: 3-13            [12, 16, 190, 270, 12]    32
│    │    └─MaxPool3d: 3-14              [12, 16, 95, 135, 12]     --
│    └─Sequential: 2-4                   [12, 32, 47, 67, 12]      --
│    │    └─Conv3d: 3-15                 [12, 32, 95, 135, 12]     4,640
│    │    └─LeakyReLU: 3-16              [12, 32, 95, 135, 12]     --
│    │    └─BatchNorm3d: 3-17            [12, 32, 95, 135, 12]     64
│    │    └─Conv3d: 3-18                 [12, 32, 95, 135, 12]     9,248
│    │    └─LeakyReLU: 3-19              [12, 32, 95, 135, 12]     --
│    │    └─BatchNorm3d: 3-20            [12, 32, 95, 135, 12]     64
│    │    └─MaxPool3d: 3-21              [12, 32, 47, 67, 12]      --
│    └─glp_rotation_pool: 2-5            [12, 32, 47, 67, 6]       --
│    └─Sequential: 2-6                   [12, 64, 23, 33, 6]       --
│    │    └─Conv3d: 3-22                 [12, 64, 47, 67, 6]       18,496
│    │    └─LeakyReLU: 3-23              [12, 64, 47, 67, 6]       --
│    │    └─BatchNorm3d: 3-24            [12, 64, 47, 67, 6]       128
│    │    └─Conv3d: 3-25                 [12, 64, 47, 67, 6]       36,928
│    │    └─LeakyReLU: 3-26              [12, 64, 47, 67, 6]       --
│    │    └─BatchNorm3d: 3-27            [12, 64, 47, 67, 6]       128
│    │    └─MaxPool3d: 3-28              [12, 64, 23, 33, 6]       --
│    └─Sequential: 2-7                   [12, 128, 11, 16, 6]      --
│    │    └─Conv3d: 3-29                 [12, 128, 23, 33, 6]      73,856
│    │    └─LeakyReLU: 3-30              [12, 128, 23, 33, 6]      --
│    │    └─BatchNorm3d: 3-31            [12, 128, 23, 33, 6]      256
│    │    └─Conv3d: 3-32                 [12, 128, 23, 33, 6]      147,584
│    │    └─LeakyReLU: 3-33              [12, 128, 23, 33, 6]      --
│    │    └─BatchNorm3d: 3-34            [12, 128, 23, 33, 6]      256
│    │    └─MaxPool3d: 3-35              [12, 128, 11, 16, 6]      --
│    └─Sequential: 2-8                   [12, 256, 5, 8, 6]        --
│    │    └─Conv3d: 3-36                 [12, 256, 11, 16, 6]      295,168
│    │    └─LeakyReLU: 3-37              [12, 256, 11, 16, 6]      --
│    │    └─BatchNorm3d: 3-38            [12, 256, 11, 16, 6]      512
│    │    └─Conv3d: 3-39                 [12, 256, 11, 16, 6]      590,080
│    │    └─LeakyReLU: 3-40              [12, 256, 11, 16, 6]      --
│    │    └─BatchNorm3d: 3-41            [12, 256, 11, 16, 6]      512
│    │    └─MaxPool3d: 3-42              [12, 256, 5, 8, 6]        --
│    └─Sequential: 2-9                   [12, 42, 5, 8, 6]         --
│    │    └─Conv3d: 3-43                 [12, 42, 5, 8, 6]         10,794
│    │    └─LeakyReLU: 3-44              [12, 42, 5, 8, 6]         --
│    │    └─BatchNorm3d: 3-45            [12, 42, 5, 8, 6]         84
│    │    └─Conv3d: 3-46                 [12, 42, 5, 8, 6]         1,806
│    │    └─LeakyReLU: 3-47              [12, 42, 5, 8, 6]         --
│    │    └─BatchNorm3d: 3-48            [12, 42, 5, 8, 6]         84
│    │    └─MaxPool3d: 3-49              [12, 42, 5, 8, 6]         --
│    └─Flatten: 2-10                     [12, 10080]               --
├─Sequential: 1-3                        [12, 100]                 --
│    └─Sequential: 2-11                  [12, 1740]                --
│    │    └─Linear: 3-50                 [12, 1740]                17,540,940
│    │    └─LeakyReLU: 3-51              [12, 1740]                --
│    │    └─Dropout: 3-52                [12, 1740]                --
│    │    └─BatchNorm1d: 3-53            [12, 1740]                3,480
│    └─Sequential: 2-12                  [12, 1305]                --
│    │    └─Linear: 3-54                 [12, 1305]                2,272,005
│    │    └─LeakyReLU: 3-55              [12, 1305]                --
│    │    └─Dropout: 3-56                [12, 1305]                --
│    │    └─BatchNorm1d: 3-57            [12, 1305]                2,610
│    └─Sequential: 2-13                  [12, 870]                 --
│    │    └─Linear: 3-58                 [12, 870]                 1,136,220
│    │    └─LeakyReLU: 3-59              [12, 870]                 --
│    │    └─Dropout: 3-60                [12, 870]                 --
│    │    └─BatchNorm1d: 3-61            [12, 870]                 1,740
│    └─Sequential: 2-14                  [12, 435]                 --
│    │    └─Linear: 3-62                 [12, 435]                 378,885
│    │    └─LeakyReLU: 3-63              [12, 435]                 --
│    │    └─Dropout: 3-64                [12, 435]                 --
│    │    └─BatchNorm1d: 3-65            [12, 435]                 870
│    └─Linear: 2-15                      [12, 100]                 43,600
├─Sigmoid: 1-4                           [12, 100]                 --
==========================================================================================
Total params: 22,575,286
Trainable params: 22,575,286
Non-trainable params: 0
Total mult-adds (G): 107.21
==========================================================================================
Input size (MB): 9.85
Forward/backward pass size (MB): 14034.56
Params size (MB): 90.30
Estimated Total Size (MB): 14134.71
…
