Using cuda device
Number of training samples: 7304
==========================================================================================
Layer (type:depth-idx)                   Output Shape              Param #
==========================================================================================
CNN                                      [96, 100]                 --
├─Sequential: 1-1                        [96, 1, 380, 540]         --
├─Sequential: 1-2                        [96, 1280]                --
│    └─Sequential: 2-1                   [96, 8, 190, 270]         --
│    │    └─Conv2d: 3-1                  [96, 8, 380, 540]         80
│    │    └─LeakyReLU: 3-2               [96, 8, 380, 540]         --
│    │    └─BatchNorm2d: 3-3             [96, 8, 380, 540]         16
│    │    └─Conv2d: 3-4                  [96, 8, 380, 540]         584
│    │    └─LeakyReLU: 3-5               [96, 8, 380, 540]         --
│    │    └─BatchNorm2d: 3-6             [96, 8, 380, 540]         16
│    │    └─MaxPool2d: 3-7               [96, 8, 190, 270]         --
│    └─Sequential: 2-2                   [96, 8, 95, 135]          --
│    │    └─Conv2d: 3-8                  [96, 8, 190, 270]         584
│    │    └─LeakyReLU: 3-9               [96, 8, 190, 270]         --
│    │    └─BatchNorm2d: 3-10            [96, 8, 190, 270]         16
│    │    └─Conv2d: 3-11                 [96, 8, 190, 270]         584
│    │    └─LeakyReLU: 3-12              [96, 8, 190, 270]         --
│    │    └─BatchNorm2d: 3-13            [96, 8, 190, 270]         16
│    │    └─MaxPool2d: 3-14              [96, 8, 95, 135]          --
│    └─Sequential: 2-3                   [96, 16, 47, 67]          --
│    │    └─Conv2d: 3-15                 [96, 16, 95, 135]         1,168
│    │    └─LeakyReLU: 3-16              [96, 16, 95, 135]         --
│    │    └─BatchNorm2d: 3-17            [96, 16, 95, 135]         32
│    │    └─Conv2d: 3-18                 [96, 16, 95, 135]         2,320
│    │    └─LeakyReLU: 3-19              [96, 16, 95, 135]         --
│    │    └─BatchNorm2d: 3-20            [96, 16, 95, 135]         32
│    │    └─MaxPool2d: 3-21              [96, 16, 47, 67]          --
│    └─Sequential: 2-4                   [96, 16, 23, 33]          --
│    │    └─Conv2d: 3-22                 [96, 16, 47, 67]          2,320
│    │    └─LeakyReLU: 3-23              [96, 16, 47, 67]          --
│    │    └─BatchNorm2d: 3-24            [96, 16, 47, 67]          32
│    │    └─Conv2d: 3-25                 [96, 16, 47, 67]          2,320
│    │    └─LeakyReLU: 3-26              [96, 16, 47, 67]          --
│    │    └─BatchNorm2d: 3-27            [96, 16, 47, 67]          32
│    │    └─MaxPool2d: 3-28              [96, 16, 23, 33]          --
│    └─Sequential: 2-5                   [96, 32, 11, 16]          --
│    │    └─Conv2d: 3-29                 [96, 32, 23, 33]          4,640
│    │    └─LeakyReLU: 3-30              [96, 32, 23, 33]          --
│    │    └─BatchNorm2d: 3-31            [96, 32, 23, 33]          64
│    │    └─Conv2d: 3-32                 [96, 32, 23, 33]          9,248
│    │    └─LeakyReLU: 3-33              [96, 32, 23, 33]          --
│    │    └─BatchNorm2d: 3-34            [96, 32, 23, 33]          64
│    │    └─MaxPool2d: 3-35              [96, 32, 11, 16]          --
│    └─Sequential: 2-6                   [96, 32, 5, 8]            --
│    │    └─Conv2d: 3-36                 [96, 32, 11, 16]          9,248
│    │    └─LeakyReLU: 3-37              [96, 32, 11, 16]          --
│    │    └─BatchNorm2d: 3-38            [96, 32, 11, 16]          64
│    │    └─Conv2d: 3-39                 [96, 32, 11, 16]          9,248
│    │    └─LeakyReLU: 3-40              [96, 32, 11, 16]          --
│    │    └─BatchNorm2d: 3-41            [96, 32, 11, 16]          64
│    │    └─MaxPool2d: 3-42              [96, 32, 5, 8]            --
│    └─Flatten: 2-7                      [96, 1280]                --
├─Sequential: 1-3                        [96, 100]                 --
│    └─Sequential: 2-8                   [96, 768]                 --
│    │    └─Linear: 3-43                 [96, 768]                 983,808
│    │    └─LeakyReLU: 3-44              [96, 768]                 --
│    │    └─Dropout: 3-45                [96, 768]                 --
│    │    └─BatchNorm1d: 3-46            [96, 768]                 1,536
│    └─Sequential: 2-9                   [96, 460]                 --
│    │    └─Linear: 3-47                 [96, 460]                 353,740
│    │    └─LeakyReLU: 3-48              [96, 460]                 --
│    │    └─Dropout: 3-49                [96, 460]                 --
│    │    └─BatchNorm1d: 3-50            [96, 460]                 920
│    └─Linear: 2-10                      [96, 100]                 46,100
├─Sigmoid: 1-4                           [96, 100]                 --
==========================================================================================
Total params: 1,428,896
Trainable params: 1,428,896
Non-trainable params: 0
Total mult-adds (Units.GIGABYTES): 25.99
==========================================================================================
Input size (MB): 78.80
Forward/backward pass size (MB): 7182.78
Params size (MB): 5.72
Estimated Total Size (MB): 7267.29
…
