Using cuda device
==========================================================================================
Layer (type:depth-idx)                   Output Shape              Param #
==========================================================================================
CNN                                      [32, 100]                 --
├─Sequential: 1-1                        [32, 1, 380, 540]         --
├─Sequential: 1-2                        [32, 1280]                --
│    └─Sequential: 2-1                   [32, 8, 190, 270]         --
│    │    └─Conv2d: 3-1                  [32, 8, 380, 540]         80
│    │    └─LeakyReLU: 3-2               [32, 8, 380, 540]         --
│    │    └─BatchNorm2d: 3-3             [32, 8, 380, 540]         16
│    │    └─Conv2d: 3-4                  [32, 8, 380, 540]         584
│    │    └─LeakyReLU: 3-5               [32, 8, 380, 540]         --
│    │    └─BatchNorm2d: 3-6             [32, 8, 380, 540]         16
│    │    └─MaxPool2d: 3-7               [32, 8, 190, 270]         --
│    └─Sequential: 2-2                   [32, 8, 95, 135]          --
│    │    └─Conv2d: 3-8                  [32, 8, 190, 270]         584
│    │    └─LeakyReLU: 3-9               [32, 8, 190, 270]         --
│    │    └─BatchNorm2d: 3-10            [32, 8, 190, 270]         16
│    │    └─Conv2d: 3-11                 [32, 8, 190, 270]         584
│    │    └─LeakyReLU: 3-12              [32, 8, 190, 270]         --
│    │    └─BatchNorm2d: 3-13            [32, 8, 190, 270]         16
│    │    └─MaxPool2d: 3-14              [32, 8, 95, 135]          --
│    └─Sequential: 2-3                   [32, 16, 47, 67]          --
│    │    └─Conv2d: 3-15                 [32, 16, 95, 135]         1,168
│    │    └─LeakyReLU: 3-16              [32, 16, 95, 135]         --
│    │    └─BatchNorm2d: 3-17            [32, 16, 95, 135]         32
│    │    └─Conv2d: 3-18                 [32, 16, 95, 135]         2,320
│    │    └─LeakyReLU: 3-19              [32, 16, 95, 135]         --
│    │    └─BatchNorm2d: 3-20            [32, 16, 95, 135]         32
│    │    └─MaxPool2d: 3-21              [32, 16, 47, 67]          --
│    └─Sequential: 2-4                   [32, 16, 23, 33]          --
│    │    └─Conv2d: 3-22                 [32, 16, 47, 67]          2,320
│    │    └─LeakyReLU: 3-23              [32, 16, 47, 67]          --
│    │    └─BatchNorm2d: 3-24            [32, 16, 47, 67]          32
│    │    └─Conv2d: 3-25                 [32, 16, 47, 67]          2,320
│    │    └─LeakyReLU: 3-26              [32, 16, 47, 67]          --
│    │    └─BatchNorm2d: 3-27            [32, 16, 47, 67]          32
│    │    └─MaxPool2d: 3-28              [32, 16, 23, 33]          --
│    └─Sequential: 2-5                   [32, 32, 11, 16]          --
│    │    └─Conv2d: 3-29                 [32, 32, 23, 33]          4,640
│    │    └─LeakyReLU: 3-30              [32, 32, 23, 33]          --
│    │    └─BatchNorm2d: 3-31            [32, 32, 23, 33]          64
│    │    └─Conv2d: 3-32                 [32, 32, 23, 33]          9,248
│    │    └─LeakyReLU: 3-33              [32, 32, 23, 33]          --
│    │    └─BatchNorm2d: 3-34            [32, 32, 23, 33]          64
│    │    └─MaxPool2d: 3-35              [32, 32, 11, 16]          --
│    └─Sequential: 2-6                   [32, 32, 5, 8]            --
│    │    └─Conv2d: 3-36                 [32, 32, 11, 16]          9,248
│    │    └─LeakyReLU: 3-37              [32, 32, 11, 16]          --
│    │    └─BatchNorm2d: 3-38            [32, 32, 11, 16]          64
│    │    └─Conv2d: 3-39                 [32, 32, 11, 16]          9,248
│    │    └─LeakyReLU: 3-40              [32, 32, 11, 16]          --
│    │    └─BatchNorm2d: 3-41            [32, 32, 11, 16]          64
│    │    └─MaxPool2d: 3-42              [32, 32, 5, 8]            --
│    └─Flatten: 2-7                      [32, 1280]                --
├─Sequential: 1-3                        [32, 100]                 --
│    └─Sequential: 2-8                   [32, 768]                 --
│    │    └─Linear: 3-43                 [32, 768]                 983,808
│    │    └─LeakyReLU: 3-44              [32, 768]                 --
│    │    └─Dropout: 3-45                [32, 768]                 --
│    │    └─BatchNorm1d: 3-46            [32, 768]                 1,536
│    └─Sequential: 2-9                   [32, 460]                 --
│    │    └─Linear: 3-47                 [32, 460]                 353,740
│    │    └─LeakyReLU: 3-48              [32, 460]                 --
│    │    └─Dropout: 3-49                [32, 460]                 --
│    │    └─BatchNorm1d: 3-50            [32, 460]                 920
│    └─Linear: 2-10                      [32, 100]                 46,100
├─Sigmoid: 1-4                           [32, 100]                 --
==========================================================================================
Total params: 1,428,896
Trainable params: 1,428,896
Non-trainable params: 0
Total mult-adds (Units.GIGABYTES): 8.66
==========================================================================================
Input size (MB): 26.27
Forward/backward pass size (MB): 2394.26
Params size (MB): 5.72
Estimated Total Size (MB): 2426.24
…
