Using cuda device
Number of training samples: 7304
==========================================================================================
Layer (type:depth-idx)                   Output Shape              Param #
==========================================================================================
CNN                                      [12, 100]                 --
├─Sequential: 1-1                        [12, 1, 380, 540, 12]     --
│    └─glp_rotation_stack: 2-1           [12, 1, 380, 540, 12]     --
├─Sequential: 1-2                        [12, 1280, 6]             --
│    └─Sequential: 2-2                   [12, 8, 190, 270, 12]     --
│    │    └─Conv3d: 3-1                  [12, 8, 380, 540, 12]     80
│    │    └─LeakyReLU: 3-2               [12, 8, 380, 540, 12]     --
│    │    └─BatchNorm3d: 3-3             [12, 8, 380, 540, 12]     16
│    │    └─Conv3d: 3-4                  [12, 8, 380, 540, 12]     584
│    │    └─LeakyReLU: 3-5               [12, 8, 380, 540, 12]     --
│    │    └─BatchNorm3d: 3-6             [12, 8, 380, 540, 12]     16
│    │    └─MaxPool3d: 3-7               [12, 8, 190, 270, 12]     --
│    └─Sequential: 2-3                   [12, 8, 95, 135, 12]      --
│    │    └─Conv3d: 3-8                  [12, 8, 190, 270, 12]     584
│    │    └─LeakyReLU: 3-9               [12, 8, 190, 270, 12]     --
│    │    └─BatchNorm3d: 3-10            [12, 8, 190, 270, 12]     16
│    │    └─Conv3d: 3-11                 [12, 8, 190, 270, 12]     584
│    │    └─LeakyReLU: 3-12              [12, 8, 190, 270, 12]     --
│    │    └─BatchNorm3d: 3-13            [12, 8, 190, 270, 12]     16
│    │    └─MaxPool3d: 3-14              [12, 8, 95, 135, 12]      --
│    └─Sequential: 2-4                   [12, 16, 47, 67, 12]      --
│    │    └─Conv3d: 3-15                 [12, 16, 95, 135, 12]     1,168
│    │    └─LeakyReLU: 3-16              [12, 16, 95, 135, 12]     --
│    │    └─BatchNorm3d: 3-17            [12, 16, 95, 135, 12]     32
│    │    └─Conv3d: 3-18                 [12, 16, 95, 135, 12]     2,320
│    │    └─LeakyReLU: 3-19              [12, 16, 95, 135, 12]     --
│    │    └─BatchNorm3d: 3-20            [12, 16, 95, 135, 12]     32
│    │    └─MaxPool3d: 3-21              [12, 16, 47, 67, 12]      --
│    └─glp_rotation_pool: 2-5            [12, 16, 47, 67, 6]       --
│    └─Sequential: 2-6                   [12, 16, 23, 33, 6]       --
│    │    └─Conv3d: 3-22                 [12, 16, 47, 67, 6]       2,320
│    │    └─LeakyReLU: 3-23              [12, 16, 47, 67, 6]       --
│    │    └─BatchNorm3d: 3-24            [12, 16, 47, 67, 6]       32
│    │    └─Conv3d: 3-25                 [12, 16, 47, 67, 6]       2,320
│    │    └─LeakyReLU: 3-26              [12, 16, 47, 67, 6]       --
│    │    └─BatchNorm3d: 3-27            [12, 16, 47, 67, 6]       32
│    │    └─MaxPool3d: 3-28              [12, 16, 23, 33, 6]       --
│    └─Sequential: 2-7                   [12, 32, 11, 16, 6]       --
│    │    └─Conv3d: 3-29                 [12, 32, 23, 33, 6]       4,640
│    │    └─LeakyReLU: 3-30              [12, 32, 23, 33, 6]       --
│    │    └─BatchNorm3d: 3-31            [12, 32, 23, 33, 6]       64
│    │    └─Conv3d: 3-32                 [12, 32, 23, 33, 6]       9,248
│    │    └─LeakyReLU: 3-33              [12, 32, 23, 33, 6]       --
│    │    └─BatchNorm3d: 3-34            [12, 32, 23, 33, 6]       64
│    │    └─MaxPool3d: 3-35              [12, 32, 11, 16, 6]       --
│    └─Sequential: 2-8                   [12, 32, 5, 8, 6]         --
│    │    └─Conv3d: 3-36                 [12, 32, 11, 16, 6]       9,248
│    │    └─LeakyReLU: 3-37              [12, 32, 11, 16, 6]       --
│    │    └─BatchNorm3d: 3-38            [12, 32, 11, 16, 6]       64
│    │    └─Conv3d: 3-39                 [12, 32, 11, 16, 6]       9,248
│    │    └─LeakyReLU: 3-40              [12, 32, 11, 16, 6]       --
│    │    └─BatchNorm3d: 3-41            [12, 32, 11, 16, 6]       64
│    │    └─MaxPool3d: 3-42              [12, 32, 5, 8, 6]         --
│    └─Flatten: 2-9                      [12, 1280, 6]             --
├─Sequential: 1-3                        [12, 100]                 --
│    └─Sequential: 2-10                  [12, 768, 6]              --
│    │    └─glp_linear: 3-43             [12, 768, 6]              983,808
│    │    └─LeakyReLU: 3-44              [12, 768, 6]              --
│    │    └─Dropout: 3-45                [12, 768, 6]              --
│    │    └─BatchNorm1d: 3-46            [12, 768, 6]              1,536
│    └─Sequential: 2-11                  [12, 460, 6]              --
│    │    └─glp_linear: 3-47             [12, 460, 6]              353,740
│    │    └─LeakyReLU: 3-48              [12, 460, 6]              --
│    │    └─Dropout: 3-49                [12, 460, 6]              --
│    │    └─BatchNorm1d: 3-50            [12, 460, 6]              920
│    └─Flatten: 2-12                     [12, 2760]                --
│    └─Linear: 2-13                      [12, 100]                 276,100
├─Sigmoid: 1-4                           [12, 100]                 --
==========================================================================================
Total params: 1,658,896
Trainable params: 1,658,896
Non-trainable params: 0
Total mult-adds (Units.GIGABYTES): 36.84
==========================================================================================
Input size (MB): 9.85
Forward/backward pass size (MB): 10587.62
Params size (MB): 6.64
Estimated Total Size (MB): 10604.11
…
