Using cuda device
==========================================================================================
Layer (type:depth-idx)                   Output Shape              Param #
==========================================================================================
CNN                                      [32, 100]                 --
├─Sequential: 1-1                        [32, 1, 380, 540, 12]     --
│    └─glp_rotation_stack: 2-1           [32, 1, 380, 540, 12]     --
├─Sequential: 1-2                        [32, 1280, 6]             --
│    └─Sequential: 2-2                   [32, 8, 190, 270, 12]     --
│    │    └─Conv3d: 3-1                  [32, 8, 380, 540, 12]     80
│    │    └─LeakyReLU: 3-2               [32, 8, 380, 540, 12]     --
│    │    └─BatchNorm3d: 3-3             [32, 8, 380, 540, 12]     16
│    │    └─Conv3d: 3-4                  [32, 8, 380, 540, 12]     584
│    │    └─LeakyReLU: 3-5               [32, 8, 380, 540, 12]     --
│    │    └─BatchNorm3d: 3-6             [32, 8, 380, 540, 12]     16
│    │    └─MaxPool3d: 3-7               [32, 8, 190, 270, 12]     --
│    └─Sequential: 2-3                   [32, 8, 95, 135, 12]      --
│    │    └─Conv3d: 3-8                  [32, 8, 190, 270, 12]     584
│    │    └─LeakyReLU: 3-9               [32, 8, 190, 270, 12]     --
│    │    └─BatchNorm3d: 3-10            [32, 8, 190, 270, 12]     16
│    │    └─Conv3d: 3-11                 [32, 8, 190, 270, 12]     584
│    │    └─LeakyReLU: 3-12              [32, 8, 190, 270, 12]     --
│    │    └─BatchNorm3d: 3-13            [32, 8, 190, 270, 12]     16
│    │    └─MaxPool3d: 3-14              [32, 8, 95, 135, 12]      --
│    └─Sequential: 2-4                   [32, 16, 47, 67, 12]      --
│    │    └─Conv3d: 3-15                 [32, 16, 95, 135, 12]     1,168
│    │    └─LeakyReLU: 3-16              [32, 16, 95, 135, 12]     --
│    │    └─BatchNorm3d: 3-17            [32, 16, 95, 135, 12]     32
│    │    └─Conv3d: 3-18                 [32, 16, 95, 135, 12]     2,320
│    │    └─LeakyReLU: 3-19              [32, 16, 95, 135, 12]     --
│    │    └─BatchNorm3d: 3-20            [32, 16, 95, 135, 12]     32
│    │    └─MaxPool3d: 3-21              [32, 16, 47, 67, 12]      --
│    └─glp_rotation_pool: 2-5            [32, 16, 47, 67, 6]       --
│    └─Sequential: 2-6                   [32, 16, 23, 33, 6]       --
│    │    └─Conv3d: 3-22                 [32, 16, 47, 67, 6]       2,320
│    │    └─LeakyReLU: 3-23              [32, 16, 47, 67, 6]       --
│    │    └─BatchNorm3d: 3-24            [32, 16, 47, 67, 6]       32
│    │    └─Conv3d: 3-25                 [32, 16, 47, 67, 6]       2,320
│    │    └─LeakyReLU: 3-26              [32, 16, 47, 67, 6]       --
│    │    └─BatchNorm3d: 3-27            [32, 16, 47, 67, 6]       32
│    │    └─MaxPool3d: 3-28              [32, 16, 23, 33, 6]       --
│    └─Sequential: 2-7                   [32, 32, 11, 16, 6]       --
│    │    └─Conv3d: 3-29                 [32, 32, 23, 33, 6]       4,640
│    │    └─LeakyReLU: 3-30              [32, 32, 23, 33, 6]       --
│    │    └─BatchNorm3d: 3-31            [32, 32, 23, 33, 6]       64
│    │    └─Conv3d: 3-32                 [32, 32, 23, 33, 6]       9,248
│    │    └─LeakyReLU: 3-33              [32, 32, 23, 33, 6]       --
│    │    └─BatchNorm3d: 3-34            [32, 32, 23, 33, 6]       64
│    │    └─MaxPool3d: 3-35              [32, 32, 11, 16, 6]       --
│    └─Sequential: 2-8                   [32, 32, 5, 8, 6]         --
│    │    └─Conv3d: 3-36                 [32, 32, 11, 16, 6]       9,248
│    │    └─LeakyReLU: 3-37              [32, 32, 11, 16, 6]       --
│    │    └─BatchNorm3d: 3-38            [32, 32, 11, 16, 6]       64
│    │    └─Conv3d: 3-39                 [32, 32, 11, 16, 6]       9,248
│    │    └─LeakyReLU: 3-40              [32, 32, 11, 16, 6]       --
│    │    └─BatchNorm3d: 3-41            [32, 32, 11, 16, 6]       64
│    │    └─MaxPool3d: 3-42              [32, 32, 5, 8, 6]         --
│    └─Flatten: 2-9                      [32, 1280, 6]             --
├─Sequential: 1-3                        [32, 100]                 --
│    └─Sequential: 2-10                  [32, 768, 6]              --
│    │    └─glp_linear: 3-43             [32, 768, 6]              983,808
│    │    └─LeakyReLU: 3-44              [32, 768, 6]              --
│    │    └─Dropout: 3-45                [32, 768, 6]              --
│    │    └─BatchNorm1d: 3-46            [32, 768, 6]              1,536
│    └─Sequential: 2-11                  [32, 460, 6]              --
│    │    └─glp_linear: 3-47             [32, 460, 6]              353,740
│    │    └─LeakyReLU: 3-48              [32, 460, 6]              --
│    │    └─Dropout: 3-49                [32, 460, 6]              --
│    │    └─BatchNorm1d: 3-50            [32, 460, 6]              920
│    └─Flatten: 2-12                     [32, 2760]                --
│    └─Linear: 2-13                      [32, 100]                 276,100
├─Sigmoid: 1-4                           [32, 100]                 --
==========================================================================================
Total params: 1,658,896
Trainable params: 1,658,896
Non-trainable params: 0
Total mult-adds (Units.GIGABYTES): 98.23
==========================================================================================
Input size (MB): 26.27
Forward/backward pass size (MB): 28233.66
Params size (MB): 6.64
Estimated Total Size (MB): 28266.56
…
