…
    (12): Conv2d(64, 128, kernel_size=(3, 3), stride=(1, 1), padding=(1, 1), padding_mode=reflect)
    (13): ReLU()
  )
  (flatten): Flatten(start_dim=1, end_dim=-1)
  (dense_stack): Sequential(
    (0): Linear(in_features=8192, out_features=100, bias=True)
    (1): ReLU()
    (2): Linear(in_features=100, out_features=2, bias=True)
  )
)
==========================================================================================
Layer (type:depth-idx)                   Output Shape              Param #
==========================================================================================
CNN                                      [32, 2]                   --
├─Sequential: 1-1                        [32, 128, 8, 8]           --
│    └─Conv2d: 2-1                       [32, 16, 128, 128]        160
│    └─ReLU: 2-2                         [32, 16, 128, 128]        --
│    └─MaxPool2d: 2-3                    [32, 16, 64, 64]          --
│    └─Conv2d: 2-4                       [32, 32, 64, 64]          4,640
│    └─ReLU: 2-5                         [32, 32, 64, 64]          --
│    └─MaxPool2d: 2-6                    [32, 32, 32, 32]          --
│    └─Conv2d: 2-7                       [32, 32, 32, 32]          9,248
│    └─ReLU: 2-8                         [32, 32, 32, 32]          --
│    └─MaxPool2d: 2-9                    [32, 32, 16, 16]          --
│    └─Conv2d: 2-10                      [32, 64, 16, 16]          18,496
│    └─ReLU: 2-11                        [32, 64, 16, 16]          --
│    └─MaxPool2d: 2-12                   [32, 64, 8, 8]            --
│    └─Conv2d: 2-13                      [32, 128, 8, 8]           73,856
│    └─ReLU: 2-14                        [32, 128, 8, 8]           --
├─Flatten: 1-2                           [32, 8192]                --
├─Sequential: 1-3                        [32, 2]                   --
│    └─Linear: 2-15                      [32, 100]                 819,300
│    └─ReLU: 2-16                        [32, 100]                 --
│    └─Linear: 2-17                      [32, 2]                   202
==========================================================================================
Total params: 925,902
Trainable params: 925,902
Non-trainable params: 0
Total mult-adds (Units.GIGABYTES): 1.32
==========================================================================================
Input size (MB): 2.10
Forward/backward pass size (MB): 115.37
Params size (MB): 3.70
Estimated Total Size (MB): 121.17
…
    (0): MaxPool3d(kernel_size=(1, 1, 2), stride=(1, 1, 2), padding=0, dilation=1, ceil_mode=False)
  )
  (flatten): Flatten(start_dim=1, end_dim=-1)
  (dense_1): Sequential(
    (0): Linear(in_features=49152, out_features=100, bias=True)
    (1): ReLU()
  )
  (classifier): Linear(in_features=100, out_features=2, bias=True)
)
==========================================================================================
Layer (type:depth-idx)                   Output Shape              Param #
==========================================================================================
glp_CNN                                  [32, 2]                   --
├─Sequential: 1-1                        [32, 128, 8, 8, 12]       --
│    └─Conv3d: 2-1                       [32, 16, 128, 128, 12]    160
│    └─ReLU: 2-2                         [32, 16, 128, 128, 12]    --
│    └─MaxPool3d: 2-3                    [32, 16, 64, 64, 12]      --
│    └─Conv3d: 2-4                       [32, 32, 64, 64, 12]      4,640
│    └─ReLU: 2-5                         [32, 32, 64, 64, 12]      --
│    └─MaxPool3d: 2-6                    [32, 32, 32, 32, 12]      --
│    └─Conv3d: 2-7                       [32, 32, 32, 32, 12]      9,248
│    └─ReLU: 2-8                         [32, 32, 32, 32, 12]      --
│    └─MaxPool3d: 2-9                    [32, 32, 16, 16, 12]      --
│    └─Conv3d: 2-10                      [32, 64, 16, 16, 12]      18,496
│    └─ReLU: 2-11                        [32, 64, 16, 16, 12]      --
│    └─MaxPool3d: 2-12                   [32, 64, 8, 8, 12]        --
│    └─Conv3d: 2-13                      [32, 128, 8, 8, 12]       73,856
│    └─ReLU: 2-14                        [32, 128, 8, 8, 12]       --
├─Sequential: 1-2                        [32, 128, 8, 8, 6]        --
│    └─MaxPool3d: 2-15                   [32, 128, 8, 8, 6]        --
├─Flatten: 1-3                           [32, 49152]               --
├─Sequential: 1-4                        [32, 100]                 --
│    └─Linear: 2-16                      [32, 100]                 4,915,300
│    └─ReLU: 2-17                        [32, 100]                 --
├─Linear: 1-5                            [32, 2]                   202
==========================================================================================
Total params: 5,021,902
Trainable params: 5,021,902
Non-trainable params: 0
Total mult-adds (Units.GIGABYTES): 15.73
==========================================================================================
Input size (MB): 25.17
Forward/backward pass size (MB): 1384.15
Params size (MB): 20.09
Estimated Total Size (MB): 1429.40
…
