Using cuda device
==========================================================================================
Layer (type:depth-idx)                   Output Shape              Param #
==========================================================================================
CNN                                      [8, 100]                  --
├─Sequential: 1-1                        [8, 1, 380, 540, 12]      --
├─Sequential: 1-2                        [8, 64, 5, 8, 6]          --
│    └─Sequential: 2-1                   [8, 8, 190, 270, 12]      --
│    │    └─Conv3d: 3-1                  [8, 8, 380, 540, 12]      80
│    │    └─LeakyReLU: 3-2               [8, 8, 380, 540, 12]      --
│    │    └─BatchNorm3d: 3-3             [8, 8, 380, 540, 12]      16
│    │    └─Conv3d: 3-4                  [8, 8, 380, 540, 12]      584
│    │    └─LeakyReLU: 3-5               [8, 8, 380, 540, 12]      --
│    │    └─BatchNorm3d: 3-6             [8, 8, 380, 540, 12]      16
│    │    └─MaxPool3d: 3-7               [8, 8, 190, 270, 12]      --
│    └─Sequential: 2-2                   [8, 16, 95, 135, 12]      --
│    │    └─Conv3d: 3-8                  [8, 16, 190, 270, 12]     1,168
│    │    └─LeakyReLU: 3-9               [8, 16, 190, 270, 12]     --
│    │    └─BatchNorm3d: 3-10            [8, 16, 190, 270, 12]     32
│    │    └─Conv3d: 3-11                 [8, 16, 190, 270, 12]     2,320
│    │    └─LeakyReLU: 3-12              [8, 16, 190, 270, 12]     --
│    │    └─BatchNorm3d: 3-13            [8, 16, 190, 270, 12]     32
│    │    └─MaxPool3d: 3-14              [8, 16, 95, 135, 12]      --
│    └─Sequential: 2-3                   [8, 32, 47, 67, 12]       --
│    │    └─Conv3d: 3-15                 [8, 32, 95, 135, 12]      4,640
│    │    └─LeakyReLU: 3-16              [8, 32, 95, 135, 12]      --
│    │    └─BatchNorm3d: 3-17            [8, 32, 95, 135, 12]      64
│    │    └─Conv3d: 3-18                 [8, 32, 95, 135, 12]      9,248
│    │    └─LeakyReLU: 3-19              [8, 32, 95, 135, 12]      --
│    │    └─BatchNorm3d: 3-20            [8, 32, 95, 135, 12]      64
│    │    └─MaxPool3d: 3-21              [8, 32, 47, 67, 12]       --
│    └─Sequential: 2-4                   [8, 64, 23, 33, 6]        --
│    │    └─Conv3d: 3-22                 [8, 64, 47, 67, 6]        18,496
│    │    └─LeakyReLU: 3-23              [8, 64, 47, 67, 6]        --
│    │    └─BatchNorm3d: 3-24            [8, 64, 47, 67, 6]        128
│    │    └─Conv3d: 3-25                 [8, 64, 47, 67, 6]        36,928
│    │    └─LeakyReLU: 3-26              [8, 64, 47, 67, 6]        --
│    │    └─BatchNorm3d: 3-27            [8, 64, 47, 67, 6]        128
│    │    └─MaxPool3d: 3-28              [8, 64, 23, 33, 6]        --
│    └─Sequential: 2-5                   [8, 64, 11, 16, 6]        --
│    │    └─Conv3d: 3-29                 [8, 64, 23, 33, 6]        36,928
│    │    └─LeakyReLU: 3-30              [8, 64, 23, 33, 6]        --
│    │    └─BatchNorm3d: 3-31            [8, 64, 23, 33, 6]        128
│    │    └─Conv3d: 3-32                 [8, 64, 23, 33, 6]        36,928
│    │    └─LeakyReLU: 3-33              [8, 64, 23, 33, 6]        --
│    │    └─BatchNorm3d: 3-34            [8, 64, 23, 33, 6]        128
│    │    └─MaxPool3d: 3-35              [8, 64, 11, 16, 6]        --
│    └─Sequential: 2-6                   [8, 64, 5, 8, 6]          --
│    │    └─Conv3d: 3-36                 [8, 64, 11, 16, 6]        36,928
│    │    └─LeakyReLU: 3-37              [8, 64, 11, 16, 6]        --
│    │    └─BatchNorm3d: 3-38            [8, 64, 11, 16, 6]        128
│    │    └─Conv3d: 3-39                 [8, 64, 11, 16, 6]        36,928
│    │    └─LeakyReLU: 3-40              [8, 64, 11, 16, 6]        --
│    │    └─BatchNorm3d: 3-41            [8, 64, 11, 16, 6]        128
│    │    └─MaxPool3d: 3-42              [8, 64, 5, 8, 6]          --
├─Flatten: 1-3                           [8, 15360]                --
├─Sequential: 1-4                        [8, 435]                  --
│    └─Sequential: 2-7                   [8, 1740]                 --
│    │    └─Linear: 3-43                 [8, 1740]                 26,728,140
│    │    └─LeakyReLU: 3-44              [8, 1740]                 --
│    │    └─Dropout: 3-45                [8, 1740]                 --
│    │    └─BatchNorm1d: 3-46            [8, 1740]                 3,480
│    └─Sequential: 2-8                   [8, 1305]                 --
│    │    └─Linear: 3-47                 [8, 1305]                 2,272,005
│    │    └─LeakyReLU: 3-48              [8, 1305]                 --
│    │    └─Dropout: 3-49                [8, 1305]                 --
│    │    └─BatchNorm1d: 3-50            [8, 1305]                 2,610
│    └─Sequential: 2-9                   [8, 870]                  --
│    │    └─Linear: 3-51                 [8, 870]                  1,136,220
│    │    └─LeakyReLU: 3-52              [8, 870]                  --
│    │    └─Dropout: 3-53                [8, 870]                  --
│    │    └─BatchNorm1d: 3-54            [8, 870]                  1,740
│    └─Sequential: 2-10                  [8, 435]                  --
│    │    └─Linear: 3-55                 [8, 435]                  378,885
│    │    └─LeakyReLU: 3-56              [8, 435]                  --
│    │    └─Dropout: 3-57                [8, 435]                  --
│    │    └─BatchNorm1d: 3-58            [8, 435]                  870
├─Sequential: 1-5                        [8, 100]                  --
│    └─Linear: 2-11                      [8, 100]                  43,600
├─Sigmoid: 1-6                           [8, 100]                  --
==========================================================================================
Total params: 30,789,718
Trainable params: 30,789,718
Non-trainable params: 0
Total mult-adds (G): 59.29
==========================================================================================
Input size (MB): 6.57
Forward/backward pass size (MB): 9227.28
Params size (MB): 123.16
Estimated Total Size (MB): 9357.00
…
