Using reduced dataset of 80 examples
Using cuda device
==========================================================================================
Layer (type:depth-idx)                   Output Shape              Param #
==========================================================================================
CNN                                      [128, 100]                --
├─Sequential: 1-1                        [128, 1, 128, 128]        --
├─Sequential: 1-2                        [128, 8192]               --
│    └─Sequential: 2-1                   [128, 16, 64, 64]         --
│    │    └─Conv2d: 3-1                  [128, 16, 128, 128]       160
│    │    └─LeakyReLU: 3-2               [128, 16, 128, 128]       --
│    │    └─BatchNorm2d: 3-3             [128, 16, 128, 128]       32
│    │    └─Conv2d: 3-4                  [128, 16, 128, 128]       2,320
│    │    └─LeakyReLU: 3-5               [128, 16, 128, 128]       --
│    │    └─BatchNorm2d: 3-6             [128, 16, 128, 128]       32
│    │    └─MaxPool2d: 3-7               [128, 16, 64, 64]         --
│    └─Sequential: 2-2                   [128, 32, 32, 32]         --
│    │    └─Conv2d: 3-8                  [128, 32, 64, 64]         4,640
│    │    └─LeakyReLU: 3-9               [128, 32, 64, 64]         --
│    │    └─BatchNorm2d: 3-10            [128, 32, 64, 64]         64
│    │    └─Conv2d: 3-11                 [128, 32, 64, 64]         9,248
│    │    └─LeakyReLU: 3-12              [128, 32, 64, 64]         --
│    │    └─BatchNorm2d: 3-13            [128, 32, 64, 64]         64
│    │    └─MaxPool2d: 3-14              [128, 32, 32, 32]         --
│    └─Sequential: 2-3                   [128, 64, 16, 16]         --
│    │    └─Conv2d: 3-15                 [128, 64, 32, 32]         18,496
│    │    └─LeakyReLU: 3-16              [128, 64, 32, 32]         --
│    │    └─BatchNorm2d: 3-17            [128, 64, 32, 32]         128
│    │    └─Conv2d: 3-18                 [128, 64, 32, 32]         36,928
│    │    └─LeakyReLU: 3-19              [128, 64, 32, 32]         --
│    │    └─BatchNorm2d: 3-20            [128, 64, 32, 32]         128
│    │    └─MaxPool2d: 3-21              [128, 64, 16, 16]         --
│    └─Sequential: 2-4                   [128, 128, 8, 8]          --
│    │    └─Conv2d: 3-22                 [128, 128, 16, 16]        73,856
│    │    └─LeakyReLU: 3-23              [128, 128, 16, 16]        --
│    │    └─BatchNorm2d: 3-24            [128, 128, 16, 16]        256
│    │    └─Conv2d: 3-25                 [128, 128, 16, 16]        147,584
│    │    └─LeakyReLU: 3-26              [128, 128, 16, 16]        --
│    │    └─BatchNorm2d: 3-27            [128, 128, 16, 16]        256
│    │    └─MaxPool2d: 3-28              [128, 128, 8, 8]          --
│    └─Flatten: 2-5                      [128, 8192]               --
├─Sequential: 1-3                        [128, 100]                --
│    └─Sequential: 2-6                   [128, 100]                --
│    │    └─Linear: 3-29                 [128, 100]                819,300
│    │    └─LeakyReLU: 3-30              [128, 100]                --
│    │    └─Dropout: 3-31                [128, 100]                --
│    │    └─BatchNorm1d: 3-32            [128, 100]                200
│    └─Linear: 2-7                       [128, 100]                10,100
├─Sigmoid: 1-4                           [128, 100]                --
==========================================================================================
Total params: 1,123,792
Trainable params: 1,123,792
Non-trainable params: 0
Total mult-adds (Units.GIGABYTES): 27.11
==========================================================================================
Input size (MB): 8.39
Forward/backward pass size (MB): 2013.57
Params size (MB): 4.50
Estimated Total Size (MB): 2026.46
…
