Using reduced dataset of 800 examples
Using cuda device
==========================================================================================
Layer (type:depth-idx)                   Output Shape              Param #
==========================================================================================
CNN                                      [32, 100]                 --
├─Sequential: 1-1                        [32, 1, 128, 128, 12]     --
│    └─glp_rotation_stack: 2-1           [32, 1, 128, 128, 12]     --
├─Sequential: 1-2                        [32, 7680]                --
│    └─Sequential: 2-2                   [32, 16, 64, 64, 12]      --
│    │    └─Conv3d: 3-1                  [32, 16, 128, 128, 12]    160
│    │    └─LeakyReLU: 3-2               [32, 16, 128, 128, 12]    --
│    │    └─BatchNorm3d: 3-3             [32, 16, 128, 128, 12]    32
│    │    └─Conv3d: 3-4                  [32, 16, 128, 128, 12]    2,320
│    │    └─LeakyReLU: 3-5               [32, 16, 128, 128, 12]    --
│    │    └─BatchNorm3d: 3-6             [32, 16, 128, 128, 12]    32
│    │    └─MaxPool3d: 3-7               [32, 16, 64, 64, 12]      --
│    └─Sequential: 2-3                   [32, 32, 32, 32, 12]      --
│    │    └─Conv3d: 3-8                  [32, 32, 64, 64, 12]      4,640
│    │    └─LeakyReLU: 3-9               [32, 32, 64, 64, 12]      --
│    │    └─BatchNorm3d: 3-10            [32, 32, 64, 64, 12]      64
│    │    └─Conv3d: 3-11                 [32, 32, 64, 64, 12]      9,248
│    │    └─LeakyReLU: 3-12              [32, 32, 64, 64, 12]      --
│    │    └─BatchNorm3d: 3-13            [32, 32, 64, 64, 12]      64
│    │    └─MaxPool3d: 3-14              [32, 32, 32, 32, 12]      --
│    └─Sequential: 2-4                   [32, 64, 16, 16, 12]      --
│    │    └─Conv3d: 3-15                 [32, 64, 32, 32, 12]      18,496
│    │    └─LeakyReLU: 3-16              [32, 64, 32, 32, 12]      --
│    │    └─BatchNorm3d: 3-17            [32, 64, 32, 32, 12]      128
│    │    └─Conv3d: 3-18                 [32, 64, 32, 32, 12]      36,928
│    │    └─LeakyReLU: 3-19              [32, 64, 32, 32, 12]      --
│    │    └─BatchNorm3d: 3-20            [32, 64, 32, 32, 12]      128
│    │    └─MaxPool3d: 3-21              [32, 64, 16, 16, 12]      --
│    └─Sequential: 2-5                   [32, 128, 8, 8, 12]       --
│    │    └─Conv3d: 3-22                 [32, 128, 16, 16, 12]     73,856
│    │    └─LeakyReLU: 3-23              [32, 128, 16, 16, 12]     --
│    │    └─BatchNorm3d: 3-24            [32, 128, 16, 16, 12]     256
│    │    └─Conv3d: 3-25                 [32, 128, 16, 16, 12]     147,584
│    │    └─LeakyReLU: 3-26              [32, 128, 16, 16, 12]     --
│    │    └─BatchNorm3d: 3-27            [32, 128, 16, 16, 12]     256
│    │    └─MaxPool3d: 3-28              [32, 128, 8, 8, 12]       --
│    └─Sequential: 2-6                   [32, 20, 8, 8, 12]        --
│    │    └─Conv3d: 3-29                 [32, 20, 8, 8, 12]        2,580
│    │    └─LeakyReLU: 3-30              [32, 20, 8, 8, 12]        --
│    │    └─BatchNorm3d: 3-31            [32, 20, 8, 8, 12]        40
│    │    └─Conv3d: 3-32                 [32, 20, 8, 8, 12]        420
│    │    └─LeakyReLU: 3-33              [32, 20, 8, 8, 12]        --
│    │    └─BatchNorm3d: 3-34            [32, 20, 8, 8, 12]        40
│    │    └─MaxPool3d: 3-35              [32, 20, 8, 8, 12]        --
│    └─glp_rotation_pool: 2-7            [32, 20, 8, 8, 6]         --
│    └─Flatten: 2-8                      [32, 7680]                --
├─Sequential: 1-3                        [32, 100]                 --
│    └─Sequential: 2-9                   [32, 100]                 --
│    │    └─Linear: 3-36                 [32, 100]                 768,100
│    │    └─LeakyReLU: 3-37              [32, 100]                 --
│    │    └─Dropout: 3-38                [32, 100]                 --
│    │    └─BatchNorm1d: 3-39            [32, 100]                 200
│    └─Linear: 2-10                      [32, 100]                 10,100
├─Sigmoid: 1-4                           [32, 100]                 --
==========================================================================================
Total params: 1,075,672
Trainable params: 1,075,672
Non-trainable params: 0
Total mult-adds (Units.GIGABYTES): 81.11
==========================================================================================
Input size (MB): 2.10
Forward/backward pass size (MB): 6055.60
Params size (MB): 4.30
Estimated Total Size (MB): 6062.00
…
