Using cuda device
==========================================================================================
Layer (type:depth-idx)                   Output Shape              Param #
==========================================================================================
CNN                                      [16, 100]                 --
├─Sequential: 1-1                        [16, 256, 5, 8]           --
│    └─Sequential: 2-1                   [16, 8, 190, 270]         --
│    │    └─Conv2d: 3-1                  [16, 8, 380, 540]         80
│    │    └─LeakyReLU: 3-2               [16, 8, 380, 540]         --
│    │    └─BatchNorm2d: 3-3             [16, 8, 380, 540]         16
│    │    └─Conv2d: 3-4                  [16, 8, 380, 540]         584
│    │    └─LeakyReLU: 3-5               [16, 8, 380, 540]         --
│    │    └─BatchNorm2d: 3-6             [16, 8, 380, 540]         16
│    │    └─MaxPool2d: 3-7               [16, 8, 190, 270]         --
│    └─Sequential: 2-2                   [16, 16, 95, 135]         --
│    │    └─Conv2d: 3-8                  [16, 16, 190, 270]        1,168
│    │    └─LeakyReLU: 3-9               [16, 16, 190, 270]        --
│    │    └─BatchNorm2d: 3-10            [16, 16, 190, 270]        32
│    │    └─Conv2d: 3-11                 [16, 16, 190, 270]        2,320
│    │    └─LeakyReLU: 3-12              [16, 16, 190, 270]        --
│    │    └─BatchNorm2d: 3-13            [16, 16, 190, 270]        32
│    │    └─MaxPool2d: 3-14              [16, 16, 95, 135]         --
│    └─Sequential: 2-3                   [16, 32, 47, 67]          --
│    │    └─Conv2d: 3-15                 [16, 32, 95, 135]         4,640
│    │    └─LeakyReLU: 3-16              [16, 32, 95, 135]         --
│    │    └─BatchNorm2d: 3-17            [16, 32, 95, 135]         64
│    │    └─Conv2d: 3-18                 [16, 32, 95, 135]         9,248
│    │    └─LeakyReLU: 3-19              [16, 32, 95, 135]         --
│    │    └─BatchNorm2d: 3-20            [16, 32, 95, 135]         64
│    │    └─MaxPool2d: 3-21              [16, 32, 47, 67]          --
│    └─Sequential: 2-4                   [16, 64, 23, 33]          --
│    │    └─Conv2d: 3-22                 [16, 64, 47, 67]          18,496
│    │    └─LeakyReLU: 3-23              [16, 64, 47, 67]          --
│    │    └─BatchNorm2d: 3-24            [16, 64, 47, 67]          128
│    │    └─Conv2d: 3-25                 [16, 64, 47, 67]          36,928
│    │    └─LeakyReLU: 3-26              [16, 64, 47, 67]          --
│    │    └─BatchNorm2d: 3-27            [16, 64, 47, 67]          128
│    │    └─MaxPool2d: 3-28              [16, 64, 23, 33]          --
│    └─Sequential: 2-5                   [16, 128, 11, 16]         --
│    │    └─Conv2d: 3-29                 [16, 128, 23, 33]         73,856
│    │    └─LeakyReLU: 3-30              [16, 128, 23, 33]         --
│    │    └─BatchNorm2d: 3-31            [16, 128, 23, 33]         256
│    │    └─Conv2d: 3-32                 [16, 128, 23, 33]         147,584
│    │    └─LeakyReLU: 3-33              [16, 128, 23, 33]         --
│    │    └─BatchNorm2d: 3-34            [16, 128, 23, 33]         256
│    │    └─MaxPool2d: 3-35              [16, 128, 11, 16]         --
│    └─Sequential: 2-6                   [16, 256, 5, 8]           --
│    │    └─Conv2d: 3-36                 [16, 256, 11, 16]         295,168
│    │    └─LeakyReLU: 3-37              [16, 256, 11, 16]         --
│    │    └─BatchNorm2d: 3-38            [16, 256, 11, 16]         512
│    │    └─Conv2d: 3-39                 [16, 256, 11, 16]         590,080
│    │    └─LeakyReLU: 3-40              [16, 256, 11, 16]         --
│    │    └─BatchNorm2d: 3-41            [16, 256, 11, 16]         512
│    │    └─MaxPool2d: 3-42              [16, 256, 5, 8]           --
├─Flatten: 1-2                           [16, 10240]               --
├─Sequential: 1-3                        [16, 100]                 --
│    └─Linear: 2-7                       [16, 1740]                17,819,340
│    └─LeakyReLU: 2-8                    [16, 1740]                --
│    └─Dropout: 2-9                      [16, 1740]                --
│    └─BatchNorm1d: 2-10                 [16, 1740]                3,480
│    └─Linear: 2-11                      [16, 1305]                2,272,005
│    └─LeakyReLU: 2-12                   [16, 1305]                --
│    └─Dropout: 2-13                     [16, 1305]                --
│    └─BatchNorm1d: 2-14                 [16, 1305]                2,610
│    └─Linear: 2-15                      [16, 870]                 1,136,220
│    └─LeakyReLU: 2-16                   [16, 870]                 --
│    └─Dropout: 2-17                     [16, 870]                 --
│    └─BatchNorm1d: 2-18                 [16, 870]                 1,740
│    └─Linear: 2-19                      [16, 435]                 378,885
│    └─LeakyReLU: 2-20                   [16, 435]                 --
│    └─Dropout: 2-21                     [16, 435]                 --
│    └─BatchNorm1d: 2-22                 [16, 435]                 870
│    └─Linear: 2-23                      [16, 100]                 43,600
├─Sigmoid: 1-4                           [16, 100]                 --
==========================================================================================
Total params: 22,840,918
Trainable params: 22,840,918
Non-trainable params: 0
Total mult-adds (Units.GIGABYTES): 16.21
==========================================================================================
Input size (MB): 13.13
Forward/backward pass size (MB): 1648.00
Params size (MB): 91.36
Estimated Total Size (MB): 1752.49
…
