Using cuda device
==========================================================================================
Layer (type:depth-idx)                   Output Shape              Param #
==========================================================================================
CNN                                      [64, 100]                 --
├─Sequential: 1-1                        [64, 256, 5, 8]           --
│    └─Sequential: 2-1                   [64, 8, 190, 270]         --
│    │    └─Conv2d: 3-1                  [64, 8, 380, 540]         80
│    │    └─LeakyReLU: 3-2               [64, 8, 380, 540]         --
│    │    └─BatchNorm2d: 3-3             [64, 8, 380, 540]         16
│    │    └─Conv2d: 3-4                  [64, 8, 380, 540]         584
│    │    └─LeakyReLU: 3-5               [64, 8, 380, 540]         --
│    │    └─BatchNorm2d: 3-6             [64, 8, 380, 540]         16
│    │    └─MaxPool2d: 3-7               [64, 8, 190, 270]         --
│    └─Sequential: 2-2                   [64, 16, 95, 135]         --
│    │    └─Conv2d: 3-8                  [64, 16, 190, 270]        1,168
│    │    └─LeakyReLU: 3-9               [64, 16, 190, 270]        --
│    │    └─BatchNorm2d: 3-10            [64, 16, 190, 270]        32
│    │    └─Conv2d: 3-11                 [64, 16, 190, 270]        2,320
│    │    └─LeakyReLU: 3-12              [64, 16, 190, 270]        --
│    │    └─BatchNorm2d: 3-13            [64, 16, 190, 270]        32
│    │    └─MaxPool2d: 3-14              [64, 16, 95, 135]         --
│    └─Sequential: 2-3                   [64, 32, 47, 67]          --
│    │    └─Conv2d: 3-15                 [64, 32, 95, 135]         4,640
│    │    └─LeakyReLU: 3-16              [64, 32, 95, 135]         --
│    │    └─BatchNorm2d: 3-17            [64, 32, 95, 135]         64
│    │    └─Conv2d: 3-18                 [64, 32, 95, 135]         9,248
│    │    └─LeakyReLU: 3-19              [64, 32, 95, 135]         --
│    │    └─BatchNorm2d: 3-20            [64, 32, 95, 135]         64
│    │    └─MaxPool2d: 3-21              [64, 32, 47, 67]          --
│    └─Sequential: 2-4                   [64, 64, 23, 33]          --
│    │    └─Conv2d: 3-22                 [64, 64, 47, 67]          18,496
│    │    └─LeakyReLU: 3-23              [64, 64, 47, 67]          --
│    │    └─BatchNorm2d: 3-24            [64, 64, 47, 67]          128
│    │    └─Conv2d: 3-25                 [64, 64, 47, 67]          36,928
│    │    └─LeakyReLU: 3-26              [64, 64, 47, 67]          --
│    │    └─BatchNorm2d: 3-27            [64, 64, 47, 67]          128
│    │    └─MaxPool2d: 3-28              [64, 64, 23, 33]          --
│    └─Sequential: 2-5                   [64, 128, 11, 16]         --
│    │    └─Conv2d: 3-29                 [64, 128, 23, 33]         73,856
│    │    └─LeakyReLU: 3-30              [64, 128, 23, 33]         --
│    │    └─BatchNorm2d: 3-31            [64, 128, 23, 33]         256
│    │    └─Conv2d: 3-32                 [64, 128, 23, 33]         147,584
│    │    └─LeakyReLU: 3-33              [64, 128, 23, 33]         --
│    │    └─BatchNorm2d: 3-34            [64, 128, 23, 33]         256
│    │    └─MaxPool2d: 3-35              [64, 128, 11, 16]         --
│    └─Sequential: 2-6                   [64, 256, 5, 8]           --
│    │    └─Conv2d: 3-36                 [64, 256, 11, 16]         295,168
│    │    └─LeakyReLU: 3-37              [64, 256, 11, 16]         --
│    │    └─BatchNorm2d: 3-38            [64, 256, 11, 16]         512
│    │    └─Conv2d: 3-39                 [64, 256, 11, 16]         590,080
│    │    └─LeakyReLU: 3-40              [64, 256, 11, 16]         --
│    │    └─BatchNorm2d: 3-41            [64, 256, 11, 16]         512
│    │    └─MaxPool2d: 3-42              [64, 256, 5, 8]           --
├─Flatten: 1-2                           [64, 10240]               --
├─Sequential: 1-3                        [64, 100]                 --
│    └─Linear: 2-7                       [64, 1740]                17,819,340
│    └─LeakyReLU: 2-8                    [64, 1740]                --
│    └─Dropout: 2-9                      [64, 1740]                --
│    └─BatchNorm1d: 2-10                 [64, 1740]                3,480
│    └─Linear: 2-11                      [64, 1305]                2,272,005
│    └─LeakyReLU: 2-12                   [64, 1305]                --
│    └─Dropout: 2-13                     [64, 1305]                --
│    └─BatchNorm1d: 2-14                 [64, 1305]                2,610
│    └─Linear: 2-15                      [64, 870]                 1,136,220
│    └─LeakyReLU: 2-16                   [64, 870]                 --
│    └─Dropout: 2-17                     [64, 870]                 --
│    └─BatchNorm1d: 2-18                 [64, 870]                 1,740
│    └─Linear: 2-19                      [64, 435]                 378,885
│    └─LeakyReLU: 2-20                   [64, 435]                 --
│    └─Dropout: 2-21                     [64, 435]                 --
│    └─BatchNorm1d: 2-22                 [64, 435]                 870
│    └─Linear: 2-23                      [64, 100]                 43,600
├─Sigmoid: 1-4                           [64, 100]                 --
==========================================================================================
Total params: 22,840,918
Trainable params: 22,840,918
Non-trainable params: 0
Total mult-adds (Units.GIGABYTES): 64.86
==========================================================================================
Input size (MB): 52.53
Forward/backward pass size (MB): 6591.99
Params size (MB): 91.36
Estimated Total Size (MB): 6735.88
…
