…
|    0   N/A  N/A   2416242      C   ...0_Linux-x86_64-multicore-CUDA/namd3      784MiB |
|    1   N/A  N/A   2416278      C   ...0_Linux-x86_64-multicore-CUDA/namd3      784MiB |
|    2   N/A  N/A   2416314      C   ...0_Linux-x86_64-multicore-CUDA/namd3      784MiB |
+---------------------------------------------------------------------------------------+
Using cuda device
==========================================================================================
Layer (type:depth-idx)                   Output Shape              Param #
==========================================================================================
glp_rotation_CNN                         [8, 100]                  --
├─Sequential: 1-1                        [8, 256, 5, 8, 6]         --
│    └─Sequential: 2-1                   [8, 8, 190, 270, 12]      --
│    │    └─Conv3d: 3-1                  [8, 8, 380, 540, 12]      80
│    │    └─LeakyReLU: 3-2               [8, 8, 380, 540, 12]      --
│    │    └─BatchNorm3d: 3-3             [8, 8, 380, 540, 12]      16
│    │    └─Conv3d: 3-4                  [8, 8, 380, 540, 12]      584
│    │    └─LeakyReLU: 3-5               [8, 8, 380, 540, 12]      --
│    │    └─BatchNorm3d: 3-6             [8, 8, 380, 540, 12]      16
│    │    └─MaxPool3d: 3-7               [8, 8, 190, 270, 12]      --
│    └─Sequential: 2-2                   [8, 16, 95, 135, 12]      --
│    │    └─Conv3d: 3-8                  [8, 16, 190, 270, 12]     1,168
│    │    └─LeakyReLU: 3-9               [8, 16, 190, 270, 12]     --
│    │    └─BatchNorm3d: 3-10            [8, 16, 190, 270, 12]     32
│    │    └─Conv3d: 3-11                 [8, 16, 190, 270, 12]     2,320
│    │    └─LeakyReLU: 3-12              [8, 16, 190, 270, 12]     --
│    │    └─BatchNorm3d: 3-13            [8, 16, 190, 270, 12]     32
│    │    └─MaxPool3d: 3-14              [8, 16, 95, 135, 12]      --
│    └─Sequential: 2-3                   [8, 32, 47, 67, 12]       --
│    │    └─Conv3d: 3-15                 [8, 32, 95, 135, 12]      4,640
│    │    └─LeakyReLU: 3-16              [8, 32, 95, 135, 12]      --
│    │    └─BatchNorm3d: 3-17            [8, 32, 95, 135, 12]      64
│    │    └─Conv3d: 3-18                 [8, 32, 95, 135, 12]      9,248
│    │    └─LeakyReLU: 3-19              [8, 32, 95, 135, 12]      --
│    │    └─BatchNorm3d: 3-20            [8, 32, 95, 135, 12]      64
│    │    └─MaxPool3d: 3-21              [8, 32, 47, 67, 12]       --
│    └─Sequential: 2-4                   [8, 64, 23, 33, 6]        --
│    │    └─Conv3d: 3-22                 [8, 64, 47, 67, 6]        18,496
│    │    └─LeakyReLU: 3-23              [8, 64, 47, 67, 6]        --
│    │    └─BatchNorm3d: 3-24            [8, 64, 47, 67, 6]        128
│    │    └─Conv3d: 3-25                 [8, 64, 47, 67, 6]        36,928
│    │    └─LeakyReLU: 3-26              [8, 64, 47, 67, 6]        --
│    │    └─BatchNorm3d: 3-27            [8, 64, 47, 67, 6]        128
│    │    └─MaxPool3d: 3-28              [8, 64, 23, 33, 6]        --
│    └─Sequential: 2-5                   [8, 128, 11, 16, 6]       --
│    │    └─Conv3d: 3-29                 [8, 128, 23, 33, 6]       73,856
│    │    └─LeakyReLU: 3-30              [8, 128, 23, 33, 6]       --
│    │    └─BatchNorm3d: 3-31            [8, 128, 23, 33, 6]       256
│    │    └─Conv3d: 3-32                 [8, 128, 23, 33, 6]       147,584
│    │    └─LeakyReLU: 3-33              [8, 128, 23, 33, 6]       --
│    │    └─BatchNorm3d: 3-34            [8, 128, 23, 33, 6]       256
│    │    └─MaxPool3d: 3-35              [8, 128, 11, 16, 6]       --
│    └─Sequential: 2-6                   [8, 256, 5, 8, 6]         --
│    │    └─Conv3d: 3-36                 [8, 256, 11, 16, 6]       295,168
│    │    └─LeakyReLU: 3-37              [8, 256, 11, 16, 6]       --
│    │    └─BatchNorm3d: 3-38            [8, 256, 11, 16, 6]       512
│    │    └─Conv3d: 3-39                 [8, 256, 11, 16, 6]       590,080
│    │    └─LeakyReLU: 3-40              [8, 256, 11, 16, 6]       --
│    │    └─BatchNorm3d: 3-41            [8, 256, 11, 16, 6]       512
│    │    └─MaxPool3d: 3-42              [8, 256, 5, 8, 6]         --
├─Flatten: 1-2                           [8, 61440]                --
├─Sequential: 1-3                        [8, 100]                  --
│    └─Linear: 2-7                       [8, 1740]                 106,907,340
│    └─LeakyReLU: 2-8                    [8, 1740]                 --
│    └─Dropout: 2-9                      [8, 1740]                 --
│    └─BatchNorm1d: 2-10                 [8, 1740]                 3,480
│    └─Linear: 2-11                      [8, 1305]                 2,272,005
│    └─LeakyReLU: 2-12                   [8, 1305]                 --
│    └─Dropout: 2-13                     [8, 1305]                 --
│    └─BatchNorm1d: 2-14                 [8, 1305]                 2,610
│    └─Linear: 2-15                      [8, 870]                  1,136,220
│    └─LeakyReLU: 2-16                   [8, 870]                  --
│    └─Dropout: 2-17                     [8, 870]                  --
│    └─BatchNorm1d: 2-18                 [8, 870]                  1,740
│    └─Linear: 2-19                      [8, 435]                  378,885
│    └─LeakyReLU: 2-20                   [8, 435]                  --
│    └─Dropout: 2-21                     [8, 435]                  --
│    └─BatchNorm1d: 2-22                 [8, 435]                  870
│    └─Linear: 2-23                      [8, 100]                  43,600
├─Sigmoid: 1-4                           [8, 100]                  --
==========================================================================================
Total params: 111,928,918
Trainable params: 111,928,918
Non-trainable params: 0
Total mult-adds (Units.GIGABYTES): 72.17
==========================================================================================
Input size (MB): 6.57
Forward/backward pass size (MB): 9353.80
Params size (MB): 447.72
Estimated Total Size (MB): 9808.08
…
