Using cuda device
==========================================================================================
Layer (type:depth-idx)                   Output Shape              Param #
==========================================================================================
glp_rotation_CNN                         [16, 100]                 --
├─Sequential: 1-1                        [16, 256, 5, 8, 6]        --
│    └─Sequential: 2-1                   [16, 8, 190, 270, 12]     --
│    │    └─Conv3d: 3-1                  [16, 8, 380, 540, 12]     80
│    │    └─LeakyReLU: 3-2               [16, 8, 380, 540, 12]     --
│    │    └─BatchNorm3d: 3-3             [16, 8, 380, 540, 12]     16
│    │    └─Conv3d: 3-4                  [16, 8, 380, 540, 12]     584
│    │    └─LeakyReLU: 3-5               [16, 8, 380, 540, 12]     --
│    │    └─BatchNorm3d: 3-6             [16, 8, 380, 540, 12]     16
│    │    └─MaxPool3d: 3-7               [16, 8, 190, 270, 12]     --
│    └─Sequential: 2-2                   [16, 16, 95, 135, 12]     --
│    │    └─Conv3d: 3-8                  [16, 16, 190, 270, 12]    1,168
│    │    └─LeakyReLU: 3-9               [16, 16, 190, 270, 12]    --
│    │    └─BatchNorm3d: 3-10            [16, 16, 190, 270, 12]    32
│    │    └─Conv3d: 3-11                 [16, 16, 190, 270, 12]    2,320
│    │    └─LeakyReLU: 3-12              [16, 16, 190, 270, 12]    --
│    │    └─BatchNorm3d: 3-13            [16, 16, 190, 270, 12]    32
│    │    └─MaxPool3d: 3-14              [16, 16, 95, 135, 12]     --
│    └─Sequential: 2-3                   [16, 32, 47, 67, 12]      --
│    │    └─Conv3d: 3-15                 [16, 32, 95, 135, 12]     4,640
│    │    └─LeakyReLU: 3-16              [16, 32, 95, 135, 12]     --
│    │    └─BatchNorm3d: 3-17            [16, 32, 95, 135, 12]     64
│    │    └─Conv3d: 3-18                 [16, 32, 95, 135, 12]     9,248
│    │    └─LeakyReLU: 3-19              [16, 32, 95, 135, 12]     --
│    │    └─BatchNorm3d: 3-20            [16, 32, 95, 135, 12]     64
│    │    └─MaxPool3d: 3-21              [16, 32, 47, 67, 12]      --
│    └─Sequential: 2-4                   [16, 64, 23, 33, 6]       --
│    │    └─Conv3d: 3-22                 [16, 64, 47, 67, 6]       18,496
│    │    └─LeakyReLU: 3-23              [16, 64, 47, 67, 6]       --
│    │    └─BatchNorm3d: 3-24            [16, 64, 47, 67, 6]       128
│    │    └─Conv3d: 3-25                 [16, 64, 47, 67, 6]       36,928
│    │    └─LeakyReLU: 3-26              [16, 64, 47, 67, 6]       --
│    │    └─BatchNorm3d: 3-27            [16, 64, 47, 67, 6]       128
│    │    └─MaxPool3d: 3-28              [16, 64, 23, 33, 6]       --
│    └─Sequential: 2-5                   [16, 128, 11, 16, 6]      --
│    │    └─Conv3d: 3-29                 [16, 128, 23, 33, 6]      73,856
│    │    └─LeakyReLU: 3-30              [16, 128, 23, 33, 6]      --
│    │    └─BatchNorm3d: 3-31            [16, 128, 23, 33, 6]      256
│    │    └─Conv3d: 3-32                 [16, 128, 23, 33, 6]      147,584
│    │    └─LeakyReLU: 3-33              [16, 128, 23, 33, 6]      --
│    │    └─BatchNorm3d: 3-34            [16, 128, 23, 33, 6]      256
│    │    └─MaxPool3d: 3-35              [16, 128, 11, 16, 6]      --
│    └─Sequential: 2-6                   [16, 256, 5, 8, 6]        --
│    │    └─Conv3d: 3-36                 [16, 256, 11, 16, 6]      295,168
│    │    └─LeakyReLU: 3-37              [16, 256, 11, 16, 6]      --
│    │    └─BatchNorm3d: 3-38            [16, 256, 11, 16, 6]      512
│    │    └─Conv3d: 3-39                 [16, 256, 11, 16, 6]      590,080
│    │    └─LeakyReLU: 3-40              [16, 256, 11, 16, 6]      --
│    │    └─BatchNorm3d: 3-41            [16, 256, 11, 16, 6]      512
│    │    └─MaxPool3d: 3-42              [16, 256, 5, 8, 6]        --
├─Flatten: 1-2                           [16, 61440]               --
├─Sequential: 1-3                        [16, 100]                 --
│    └─Linear: 2-7                       [16, 1740]                106,907,340
│    └─LeakyReLU: 2-8                    [16, 1740]                --
│    └─Dropout: 2-9                      [16, 1740]                --
│    └─BatchNorm1d: 2-10                 [16, 1740]                3,480
│    └─Linear: 2-11                      [16, 1305]                2,272,005
│    └─LeakyReLU: 2-12                   [16, 1305]                --
│    └─Dropout: 2-13                     [16, 1305]                --
│    └─BatchNorm1d: 2-14                 [16, 1305]                2,610
│    └─Linear: 2-15                      [16, 870]                 1,136,220
│    └─LeakyReLU: 2-16                   [16, 870]                 --
│    └─Dropout: 2-17                     [16, 870]                 --
│    └─BatchNorm1d: 2-18                 [16, 870]                 1,740
│    └─Linear: 2-19                      [16, 435]                 378,885
│    └─LeakyReLU: 2-20                   [16, 435]                 --
│    └─Dropout: 2-21                     [16, 435]                 --
│    └─BatchNorm1d: 2-22                 [16, 435]                 870
│    └─Linear: 2-23                      [16, 100]                 43,600
├─Sigmoid: 1-4                           [16, 100]                 --
==========================================================================================
Total params: 111,928,918
Trainable params: 111,928,918
Non-trainable params: 0
Total mult-adds (Units.GIGABYTES): 144.33
==========================================================================================
Input size (MB): 13.13
Forward/backward pass size (MB): 18707.59
Params size (MB): 447.72
Estimated Total Size (MB): 19168.44
…
