Using cuda device
==========================================================================================
Layer (type:depth-idx)                   Output Shape              Param #
==========================================================================================
CNN                                      [12, 100]                 --
├─Sequential: 1-1                        [12, 1, 380, 540, 12]     --
│    └─glp_rotation_stack: 2-1           [12, 1, 380, 540, 12]     --
├─Sequential: 1-2                        [12, 10240, 6]            --
│    └─Sequential: 2-2                   [12, 8, 190, 270, 12]     --
│    │    └─Conv3d: 3-1                  [12, 8, 380, 540, 12]     80
│    │    └─LeakyReLU: 3-2               [12, 8, 380, 540, 12]     --
│    │    └─BatchNorm3d: 3-3             [12, 8, 380, 540, 12]     16
│    │    └─Conv3d: 3-4                  [12, 8, 380, 540, 12]     584
│    │    └─LeakyReLU: 3-5               [12, 8, 380, 540, 12]     --
│    │    └─BatchNorm3d: 3-6             [12, 8, 380, 540, 12]     16
│    │    └─MaxPool3d: 3-7               [12, 8, 190, 270, 12]     --
│    └─Sequential: 2-3                   [12, 16, 95, 135, 12]     --
│    │    └─Conv3d: 3-8                  [12, 16, 190, 270, 12]    1,168
│    │    └─LeakyReLU: 3-9               [12, 16, 190, 270, 12]    --
│    │    └─BatchNorm3d: 3-10            [12, 16, 190, 270, 12]    32
│    │    └─Conv3d: 3-11                 [12, 16, 190, 270, 12]    2,320
│    │    └─LeakyReLU: 3-12              [12, 16, 190, 270, 12]    --
│    │    └─BatchNorm3d: 3-13            [12, 16, 190, 270, 12]    32
│    │    └─MaxPool3d: 3-14              [12, 16, 95, 135, 12]     --
│    └─Sequential: 2-4                   [12, 32, 47, 67, 12]      --
│    │    └─Conv3d: 3-15                 [12, 32, 95, 135, 12]     4,640
│    │    └─LeakyReLU: 3-16              [12, 32, 95, 135, 12]     --
│    │    └─BatchNorm3d: 3-17            [12, 32, 95, 135, 12]     64
│    │    └─Conv3d: 3-18                 [12, 32, 95, 135, 12]     9,248
│    │    └─LeakyReLU: 3-19              [12, 32, 95, 135, 12]     --
│    │    └─BatchNorm3d: 3-20            [12, 32, 95, 135, 12]     64
│    │    └─MaxPool3d: 3-21              [12, 32, 47, 67, 12]      --
│    └─glp_rotation_pool: 2-5            [12, 32, 47, 67, 6]       --
│    └─Sequential: 2-6                   [12, 64, 23, 33, 6]       --
│    │    └─Conv3d: 3-22                 [12, 64, 47, 67, 6]       18,496
│    │    └─LeakyReLU: 3-23              [12, 64, 47, 67, 6]       --
│    │    └─BatchNorm3d: 3-24            [12, 64, 47, 67, 6]       128
│    │    └─Conv3d: 3-25                 [12, 64, 47, 67, 6]       36,928
│    │    └─LeakyReLU: 3-26              [12, 64, 47, 67, 6]       --
│    │    └─BatchNorm3d: 3-27            [12, 64, 47, 67, 6]       128
│    │    └─MaxPool3d: 3-28              [12, 64, 23, 33, 6]       --
│    └─Sequential: 2-7                   [12, 128, 11, 16, 6]      --
│    │    └─Conv3d: 3-29                 [12, 128, 23, 33, 6]      73,856
│    │    └─LeakyReLU: 3-30              [12, 128, 23, 33, 6]      --
│    │    └─BatchNorm3d: 3-31            [12, 128, 23, 33, 6]      256
│    │    └─Conv3d: 3-32                 [12, 128, 23, 33, 6]      147,584
│    │    └─LeakyReLU: 3-33              [12, 128, 23, 33, 6]      --
│    │    └─BatchNorm3d: 3-34            [12, 128, 23, 33, 6]      256
│    │    └─MaxPool3d: 3-35              [12, 128, 11, 16, 6]      --
│    └─Sequential: 2-8                   [12, 256, 5, 8, 6]        --
│    │    └─Conv3d: 3-36                 [12, 256, 11, 16, 6]      295,168
│    │    └─LeakyReLU: 3-37              [12, 256, 11, 16, 6]      --
│    │    └─BatchNorm3d: 3-38            [12, 256, 11, 16, 6]      512
│    │    └─Conv3d: 3-39                 [12, 256, 11, 16, 6]      590,080
│    │    └─LeakyReLU: 3-40              [12, 256, 11, 16, 6]      --
│    │    └─BatchNorm3d: 3-41            [12, 256, 11, 16, 6]      512
│    │    └─MaxPool3d: 3-42              [12, 256, 5, 8, 6]        --
│    └─Flatten: 2-9                      [12, 10240, 6]            --
├─Sequential: 1-3                        [12, 100]                 --
│    └─Sequential: 2-10                  [12, 1740, 6]             --
│    │    └─glp_linear: 3-43             [12, 1740, 6]             17,819,340
│    │    └─LeakyReLU: 3-44              [12, 1740, 6]             --
│    │    └─Dropout: 3-45                [12, 1740, 6]             --
│    │    └─BatchNorm1d: 3-46            [12, 1740, 6]             3,480
│    └─Sequential: 2-11                  [12, 1305, 6]             --
│    │    └─glp_linear: 3-47             [12, 1305, 6]             2,272,005
│    │    └─LeakyReLU: 3-48              [12, 1305, 6]             --
│    │    └─Dropout: 3-49                [12, 1305, 6]             --
│    │    └─BatchNorm1d: 3-50            [12, 1305, 6]             2,610
│    └─Sequential: 2-12                  [12, 870, 6]              --
│    │    └─glp_linear: 3-51             [12, 870, 6]              1,136,220
│    │    └─LeakyReLU: 3-52              [12, 870, 6]              --
│    │    └─Dropout: 3-53                [12, 870, 6]              --
│    │    └─BatchNorm1d: 3-54            [12, 870, 6]              1,740
│    └─Flatten: 2-13                     [12, 5220]                --
│    └─Sequential: 2-14                  [12, 435]                 --
│    │    └─Linear: 3-55                 [12, 435]                 2,271,135
│    │    └─LeakyReLU: 3-56              [12, 435]                 --
│    │    └─Dropout: 3-57                [12, 435]                 --
│    │    └─BatchNorm1d: 3-58            [12, 435]                 870
│    └─Linear: 2-15                      [12, 100]                 43,600
├─Sigmoid: 1-4                           [12, 100]                 --
==========================================================================================
Total params: 24,733,168
Trainable params: 24,733,168
Non-trainable params: 0
Total mult-adds (G): 108.48
==========================================================================================
Input size (MB): 9.85
Forward/backward pass size (MB): 14034.45
Params size (MB): 98.93
Estimated Total Size (MB): 14143.23
…
