Using cuda device
==========================================================================================
Layer (type:depth-idx)                   Output Shape              Param #
==========================================================================================
CNN                                      [32, 100]                 --
├─Sequential: 1-1                        [32, 1, 380, 540, 12]     --
│    └─glp_rotation_stack: 2-1           [32, 1, 380, 540, 12]     --
├─Sequential: 1-2                        [32, 10240, 6]            --
│    └─Sequential: 2-2                   [32, 8, 190, 270, 12]     --
│    │    └─Conv3d: 3-1                  [32, 8, 380, 540, 12]     80
│    │    └─LeakyReLU: 3-2               [32, 8, 380, 540, 12]     --
│    │    └─BatchNorm3d: 3-3             [32, 8, 380, 540, 12]     16
│    │    └─Conv3d: 3-4                  [32, 8, 380, 540, 12]     584
│    │    └─LeakyReLU: 3-5               [32, 8, 380, 540, 12]     --
│    │    └─BatchNorm3d: 3-6             [32, 8, 380, 540, 12]     16
│    │    └─MaxPool3d: 3-7               [32, 8, 190, 270, 12]     --
│    └─Sequential: 2-3                   [32, 16, 95, 135, 12]     --
│    │    └─Conv3d: 3-8                  [32, 16, 190, 270, 12]    1,168
│    │    └─LeakyReLU: 3-9               [32, 16, 190, 270, 12]    --
│    │    └─BatchNorm3d: 3-10            [32, 16, 190, 270, 12]    32
│    │    └─Conv3d: 3-11                 [32, 16, 190, 270, 12]    2,320
│    │    └─LeakyReLU: 3-12              [32, 16, 190, 270, 12]    --
│    │    └─BatchNorm3d: 3-13            [32, 16, 190, 270, 12]    32
│    │    └─MaxPool3d: 3-14              [32, 16, 95, 135, 12]     --
│    └─Sequential: 2-4                   [32, 32, 47, 67, 12]      --
│    │    └─Conv3d: 3-15                 [32, 32, 95, 135, 12]     4,640
│    │    └─LeakyReLU: 3-16              [32, 32, 95, 135, 12]     --
│    │    └─BatchNorm3d: 3-17            [32, 32, 95, 135, 12]     64
│    │    └─Conv3d: 3-18                 [32, 32, 95, 135, 12]     9,248
│    │    └─LeakyReLU: 3-19              [32, 32, 95, 135, 12]     --
│    │    └─BatchNorm3d: 3-20            [32, 32, 95, 135, 12]     64
│    │    └─MaxPool3d: 3-21              [32, 32, 47, 67, 12]      --
│    └─glp_rotation_pool: 2-5            [32, 32, 47, 67, 6]       --
│    └─Sequential: 2-6                   [32, 64, 23, 33, 6]       --
│    │    └─Conv3d: 3-22                 [32, 64, 47, 67, 6]       18,496
│    │    └─LeakyReLU: 3-23              [32, 64, 47, 67, 6]       --
│    │    └─BatchNorm3d: 3-24            [32, 64, 47, 67, 6]       128
│    │    └─Conv3d: 3-25                 [32, 64, 47, 67, 6]       36,928
│    │    └─LeakyReLU: 3-26              [32, 64, 47, 67, 6]       --
│    │    └─BatchNorm3d: 3-27            [32, 64, 47, 67, 6]       128
│    │    └─MaxPool3d: 3-28              [32, 64, 23, 33, 6]       --
│    └─Sequential: 2-7                   [32, 128, 11, 16, 6]      --
│    │    └─Conv3d: 3-29                 [32, 128, 23, 33, 6]      73,856
│    │    └─LeakyReLU: 3-30              [32, 128, 23, 33, 6]      --
│    │    └─BatchNorm3d: 3-31            [32, 128, 23, 33, 6]      256
│    │    └─Conv3d: 3-32                 [32, 128, 23, 33, 6]      147,584
│    │    └─LeakyReLU: 3-33              [32, 128, 23, 33, 6]      --
│    │    └─BatchNorm3d: 3-34            [32, 128, 23, 33, 6]      256
│    │    └─MaxPool3d: 3-35              [32, 128, 11, 16, 6]      --
│    └─Sequential: 2-8                   [32, 256, 5, 8, 6]        --
│    │    └─Conv3d: 3-36                 [32, 256, 11, 16, 6]      295,168
│    │    └─LeakyReLU: 3-37              [32, 256, 11, 16, 6]      --
│    │    └─BatchNorm3d: 3-38            [32, 256, 11, 16, 6]      512
│    │    └─Conv3d: 3-39                 [32, 256, 11, 16, 6]      590,080
│    │    └─LeakyReLU: 3-40              [32, 256, 11, 16, 6]      --
│    │    └─BatchNorm3d: 3-41            [32, 256, 11, 16, 6]      512
│    │    └─MaxPool3d: 3-42              [32, 256, 5, 8, 6]        --
│    └─Flatten: 2-9                      [32, 10240, 6]            --
├─Sequential: 1-3                        [32, 100]                 --
│    └─Sequential: 2-10                  [32, 1740, 6]             --
│    │    └─glp_linear: 3-43             [32, 1740, 6]             17,819,340
│    │    └─LeakyReLU: 3-44              [32, 1740, 6]             --
│    │    └─Dropout: 3-45                [32, 1740, 6]             --
│    │    └─BatchNorm1d: 3-46            [32, 1740, 6]             3,480
│    └─Sequential: 2-11                  [32, 1305, 6]             --
│    │    └─glp_linear: 3-47             [32, 1305, 6]             2,272,005
│    │    └─LeakyReLU: 3-48              [32, 1305, 6]             --
│    │    └─Dropout: 3-49                [32, 1305, 6]             --
│    │    └─BatchNorm1d: 3-50            [32, 1305, 6]             2,610
│    └─Sequential: 2-12                  [32, 870, 6]              --
│    │    └─glp_linear: 3-51             [32, 870, 6]              1,136,220
│    │    └─LeakyReLU: 3-52              [32, 870, 6]              --
│    │    └─Dropout: 3-53                [32, 870, 6]              --
│    │    └─BatchNorm1d: 3-54            [32, 870, 6]              1,740
│    └─Flatten: 2-13                     [32, 5220]                --
│    └─Sequential: 2-14                  [32, 435]                 --
│    │    └─Linear: 3-55                 [32, 435]                 2,271,135
│    │    └─LeakyReLU: 3-56              [32, 435]                 --
│    │    └─Dropout: 3-57                [32, 435]                 --
│    │    └─BatchNorm1d: 3-58            [32, 435]                 870
│    └─Linear: 2-15                      [32, 100]                 43,600
├─Sigmoid: 1-4                           [32, 100]                 --
==========================================================================================
Total params: 24,733,168
Trainable params: 24,733,168
Non-trainable params: 0
Total mult-adds (G): 289.27
==========================================================================================
Input size (MB): 26.27
Forward/backward pass size (MB): 37425.20
Params size (MB): 98.93
Estimated Total Size (MB): 37550.40
…
